…
    "    model.compile(optimizer=opt, loss=losses.binary_crossentropy, metrics=['acc'])\n",
    "    model.summary()\n",
    "    return model"
   ]
  },
  {
   "cell_type": "code",
   "execution_count": 4,
   "metadata": {},
   "outputs": [
    {
     "name": "stdout",
     "output_type": "stream",
     "text": [
      "Model: \"model_1\"\n",
      "_________________________________________________________________\n",
      "Layer (type)                 Output Shape              Param #   \n",
      "=================================================================\n",
      "input_1 (InputLayer)         (None, 11, 1)             0         \n",
      "_________________________________________________________________\n",
      "conv1d_1 (Conv1D)            (None, 7, 16)             96        \n",
      "_________________________________________________________________\n",
      "dropout_1 (Dropout)          (None, 7, 16)             0         \n",
      "_________________________________________________________________\n",
      "conv1d_2 (Conv1D)            (None, 5, 32)             1568      \n",
      "_________________________________________________________________\n",
      "dropout_2 (Dropout)          (None, 5, 32)             0         \n",
      "_________________________________________________________________\n",
      "conv1d_3 (Conv1D)            (None, 3, 64)             6208      \n",
      "_________________________________________________________________\n",
      "dropout_3 (Dropout)          (None, 3, 64)             0         \n",
      "_________________________________________________________________\n",
      "conv1d_4 (Conv1D)            (None, 1, 256)            49408     \n",
      "_________________________________________________________________\n",
      "global_max_pooling1d_1 (Glob (None, 256)               0         \n",
      "_________________________________________________________________\n",
      "dropout_4 (Dropout)          (None, 256)               0         \n",
      "_________________________________________________________________\n",
      "dense_1 (Dense)              (None, 64)                16448     \n",
      "_________________________________________________________________\n",
      "dense_2 (Dense)              (None, 16)                1040      \n",
      "_________________________________________________________________\n",
      "dense_3_ecg_view (Dense)     (None, 2)                 34        \n",
      "=================================================================\n",
      "Total params: 74,802\n",
      "Trainable params: 74,802\n",
      "Non-trainable params: 0\n",
      "_________________________________________________________________\n",
      "Train on 152260 samples, validate on 16918 samples\n",
      "Epoch 1/1000\n",
      " - 24s - loss: 0.6617 - acc: 0.7493 - val_loss: 0.4789 - val_acc: 0.7771\n",
…
